crop_recom.tflite (tflite, 11416 bytes, 3 tensors)

sequential_1/dense_3/MatMul1 f4 [64, 2]
0.25058573 0.2851923 0.039607704 0.053093344 -0.05366081 0.06371376 0.06707436 -0.29935628
0.23134738 0.07829511 0.02364111 -0.06510253 0.018883646 -0.0012144446 -0.30100095 0.27468562
-0.19929555 0.19001696 0.016977787 0.22955692 0.056720495 -0.017966956 -0.13559012 -0.28799206
-0.28365517 -0.16169555 0.18889064 0.057653785 0.20739883 -0.019677967 -0.1529671 0.23795378
0.19337282 -0.119360074 0.29206115 -0.25932 -0.25900212 0.15981725 0.23777485 -0.10831489
-0.023918897 -0.2642385 -0.12815611 -0.14004417 -0.04832235 -0.19784698 0.123441696 -0.058630288
0.12182993 0.27744812 -0.04147479 0.036341637 -0.034921587 0.15592909 0.008058041 0.14616117
0.26131994 -0.20306107 0.22013026 0.18833014 0.26079077 0.2126736 -0.008147895 0.080929875
-0.08366068 -0.13049744 -0.16471009 -0.24858578 -0.2990378 -0.10091703 -0.102508724 -0.13425958
0.22829592 0.053205848 0.21710211 0.19421345 -0.051636443 0.23664814 -0.16231357 -0.23076525
-0.072507575 0.18705633 0.2867096 -0.2714631 -0.19459465 0.28281122 -0.09140156 -0.17193168
0.25117463 0.057439208 -0.14616655 -0.24977268 0.1290513 0.2745806 0.23741484 0.15797669
0.036848933 0.28149801 0.092735976 0.09404302 -0.11059438 0.099710345 -0.13928203 0.24107432
0.26580983 0.025740474 -0.20291069 -0.025746644 -0.08543216 -0.23850054 0.02836281 0.030002803
0.29763198 -0.1380254 0.13842249 -0.24218124 0.06664714 0.08024639 0.26876587 0.18098587
-0.14458656 -0.09599292 -0.24694182 -0.024874598 -0.18848392 0.14871216 0.29527748 -0.1295044
00000000: c64c 803e ba04 923e b03b 223d 6878 593d
00000010: 70cb 5bbd 5c7c 823d 485e 893d 3a45 99be
00000020: 54e6 6c3e 3059 a03d 00ab c13c 7a54 85bd
00000030: e0b1 9a3c 002e 9fba cc1c 9abe 98a3 8c3e
00000040: 2214 4cbe ce93 423e 0015 8b3c f810 6b3e
00000050: c053 683d 702f 93bc 23d8 0abe b273 93be
00000060: 403b 91be 8593 25be 8c6c 413e 6026 6c3d
00000070: 5c60 543e b033 a1bc 68a3 1cbe 28aa 733e
00000080: 8603 463e 0e73 f4bd 0a89 953e 97c5 84be
00000090: ed9b 84be 22a7 233e 407b 733e 32d4 ddbd
000000a0: 90f1 c3bc 454a 87be 5b3b 03be bd67 0fbe
000000b0: a8ed 45bd 6698 4abe 00cf fc3d 5026 70bd
000000c0: f881 f93d ae0d 8e3e 78e1 29bd f8da 143d
000000d0: f009 0fbd e0ab 1f3e e005 043c 46ab 153e
000000e0: bacb 853e 3eef 4fbe d469 613e 9ed9 403e
000000f0: 5e86 853e 1cc7 593e c07e 05bc 90be a53d
00000100: 4a56 abbd 1fa1 05be c3a9 28be 458d 7ebe
00000110: 7c1b 99be 96ad cebd 18f0 d1bd 587b 09be
00000120: 68c6 693e 60ee 593d 0450 5e3e e4df 463e
00000130: bc80 53bd e453 723e 8735 26be ba4d 6cbe
00000140: da7e 94bd b28b 3f3e 9acb 923e 36fd 8abe
00000150: d243 47be a2cc 903e be30 bbbd dc0e 30be
00000160: f699 803e 6045 6b3d afac 15be 69c4 7fbe
00000170: 0626 043e d495 8c3e e01c 733e a4c4 213e
00000180: e8ee 163d 8220 903e 5cec bd3d a099 c03d
00000190: 4e7f e2bd f034 cc3d f39f 0ebe 30dc 763e
000001a0: 3a18 883e b0dd d23c d2c7 4fbe a0ea d2bc
000001b0: 0ef7 aebd 7c39 74be 2059 e83c 70c8 f53c
000001c0: 3863 983e 8856 0dbe a0be 0d3e 5cfe 77be
000001d0: 4c7e 883d 3858 a43d ae9b 893e 5c54 393e
000001e0: 800e 14be f097 c4bd 51de 7cbe d0c5 cbbc
000001f0: ee01 41be 0048 183e 9c2e 973e cd9c 04be

sequential_1/dense_4/MatMul f4 [32, 64]
-0.13975662 -0.2023068 0.15165997 0.20086384 0.039351285 -0.09000039 0.15170836 0.20679909
-0.0073414445 0.24376637 -0.2475012 0.119478405 0.19787812 0.0023699403 0.06724596 0.06039703
0.02615112 -0.06383926 -0.24833614 0.036323905 -0.05937481 0.2062462 0.12639952 -0.06196302
0.237154 0.21626431 -0.14608902 0.06845492 0.085796356 -0.0057361126 0.24847955 0.07039553
-0.11500919 -0.072999835 0.07721096 0.22540373 0.047429204 0.00998193 -0.11298722 0.08577335
-0.01757437 -0.17581642 0.15107816 0.23091304 0.15011841 -0.11676985 0.20334214 0.16332674
0.006522119 -0.22053134 0.13940305 -0.2399174 -0.16359955 0.026694953 0.13526142 0.09244549
-0.084465265 0.012027264 -0.09423995 0.052559376 0.1376651 -0.008247435 0.09515029 0.15530121
-0.09052229 -0.15505242 0.23364669 0.034734547 0.09122604 0.054918826 0.14961213 -0.06988871
-0.24503869 -0.1588046 -0.0187971 -0.12043375 0.17726344 -0.2456178 -0.09735811 -0.17140985
-0.24001604 0.09725183 -0.23579955 -0.086233675 -0.057951093 0.1209715 0.16320318 -0.04138595
0.08568281 0.21229815 -0.06914842 -0.15678436 -0.099942446 -0.19969064 0.16235328 0.048883796
-0.15001982 -0.062241852 0.17826349 -0.21752656 -0.0034407973 -0.2229017 -0.12252694 0.008025527
-0.114531934 0.0042025447 -0.10835773 0.09221923 -0.22198015 0.18154258 -0.18106306 0.20294243
0.24913257 0.19575936 -0.20151365 -0.11871129 0.19198114 -0.025601268 -0.026571512 0.003981352
0.2070275 -0.07412809 -0.19053316 0.176103 0.01678896 -0.23139268 -0.011980593 -0.14163536
0.06824815 0.12755531 0.1838696 -0.20137066 -0.13603902 -0.069321096 -0.19561815 0.19458097
0.08570093 0.12983024 -0.18232661 -0.08076769 -0.19989502 -0.059591174 0.16214621 -0.21232736
0.22846955 -0.11912197 -0.23596972 0.19818527 -0.06474072 -0.23028666 0.19994569 0.005702436
-0.21156198 -0.19630522 0.11023873 0.09176153 0.15414941 0.1538431 0.009769499 -0.15339518
0.063134134 -0.24695486 -0.21191597 -0.024453878 -0.20218676 0.18557578 -0.059479535 -0.043078005
0.063154936 0.09405595 0.1744253 0.18859994 -0.10596758 0.14208674 0.17614526 -0.19486761
0.020445347 -0.18617076 -0.24055135 0.084101796 0.13873136 -0.08290726 0.16000706 -0.025855541
-0.23583984 0.19453621 -0.1253596 0.22697979 -0.080812514 0.0122231245 0.038340926 0.14759958
-0.14337981 0.14766324 -0.1612485 0.09139669 0.06157255 0.12247974 0.16182101 -0.18987983
-0.17858082 -0.16574752 0.10346824 -0.23177421 -0.19693047 0.065653026 -0.23713428 0.051545084
-0.1539951 -0.005401075 -0.051392794 0.10923052 0.09623027 -0.24447256 0.012990296 0.053778052
-0.19740629 0.23908031 0.23095423 0.08377105 0.030725002 0.08503121 -0.13982433 0.00449425
0.13661563 -0.23636901 -0.19483429 -0.091510355 0.16380316 0.012229264 -0.07256335 -0.24884039
0.06000811 0.22698665 -0.17831403 -0.22709095 0.10732013 0.0460456 0.085719824 -0.07396883
0.09556198 -0.004663527 0.13578004 0.116187215 -0.20648468 -0.13704824 -0.009311199 0.1267463
0.060978472 -0.23614764 0.08364195 -0.18109524 -0.0047671795 0.22398436 -0.23854959 -0.23699296
00000000: 5c1c 0fbe 8429 4fbe c04c 1b3e 40af 4d3e
00000010: d02e 213d 2052 b8bd 7059 1b3e 24c3 533e
00000020: 8090 f0bb e49d 793e f470 7dbe 18b1 f43d
00000030: 90a0 4a3e 0051 1b3b 40b8 893d e062 773d
00000040: e03a d63c 28be 82bd d44b 7ebe 60c8 143d
00000050: 0033 73bd 3432 533e e06e 013e f0cc 7dbd
00000060: 80d8 723e 6474 5d3e 5c98 15be 1832 8c3d
00000070: 00b6 af3d 00f6 bbbb 6c71 7e3e 882b 903d
00000080: f089 ebbd f080 95bd c820 9e3d 3cd0 663e
00000090: 2045 423d 408b 233c d865 e7bd f0a9 af3d
000000a0: 20f8 8fbc 3809 34be 3cb4 1a3e 7874 6c3e
000000b0: a4b8 193e 0825 efbd ec38 503e 203f 273e
000000c0: 80b7 d53b f8d2 61be acbf 0e3e e8ac 75be
000000d0: a486 27be 60af da3c f881 0a3e 1054 bd3d
000000e0: 20fc acbd 000e 453c e000 c1bd 8048 573d
000000f0: 14f8 0c3e 4020 07bc 28de c23d 4807 1f3e
00000100: c063 b9bd 10c6 1ebe 1441 6f3e d045 0e3d
00000110: b8d4 ba3d 90f2 603d ec33 193e d021 8fbd
00000120: 6ceb 7abe ac9d 22be 60fc 99bc f8a5 f6bd
00000130: 8c84 353e 3c83 7bbe b063 c7bd 1086 2fbe
00000140: c4c6 75be f82b c73d 7075 71be 489b b0bd
00000150: 205e 6dbd e8bf f73d bc1e 273e 5084 29bd
00000160: 787a af3d b064 593e b09d 8dbd 148c 20be
00000170: a0ae ccbd b47b 4cbe f03f 263e 603a 483d
00000180: cc9e 19be 50f1 7ebd b48a 363e 48bf 5ebe
00000190: 007f 61bb 5840 64be 68ef fabd 807d 033c
000001a0: b88f eabd 80b5 893b a8ea ddbd 70dd bc3d
000001b0: c44e 63be 4ce6 393e 9868 39be 24d0 4f3e
000001c0: 9c1c 7f3e 2475 483e 9859 4ebe e81e f3bd
000001d0: b496 443e c0b9 d1bc 80ac d9bc 0076 823b
000001e0: 04ff 533e 78d0 97bd 201b 43be 5854 343e
000001f0: 0089 893c 34f2 6cbe 404a 44bc dc08 11be
00000200: b0c5 8b3d dc9d 023e 5048 3c3e 1c34 4ebe
00000210: d04d 0bbe 38f8 8dbd 2050 48be 3c40 473e
00000220: f883 af3d 38f2 043e d4b3 3abe 8869 a5bd
00000230: 48b1 4cbe e015 74bd a809 263e 586c 59be
00000240: ecf3 693e 38f6 f3bd 0ca2 71be 14f1 4a3e
00000250: c896 84bd 44d0 6bbe 90be 4c3e 80db ba3b
00000260: b4a3 58be 3c04 49be d8c4 e13d 78ed bb3d
00000270: 58d9 1d3e 0c89 1d3e 4010 203c a013 1dbe
00000280: 784c 813d bce1 7cbe 8000 59be 8053 c8bc
00000290: 0c0a 4fbe 9407 3e3e d0a0 73bd 9072 30bd
000002a0: 6057 813d 68a0 c03d 8c9c 323e 5820 413e
000002b0: 8805 d9bd 307f 113e 6c5f 343e 608b 47be
000002c0: 007d a73c 8ca3 3ebe 1853 76be 903d ac3d
000002d0: 980f 0e3e 48cb a9bd e4d8 233e 00cf d3bc
000002e0: 0080 71be 8034 473e 445e 00be 646d 683e
000002f0: 0881 a5bd 8043 483c 600b 1d3d 5824 173e
00000300: 28d2 12be 0835 173e 541e 25be 302e bb3d
00000310: 8033 7c3d a8d6 fa3d 68b4 253e dc6f 42be
00000320: e4dd 36be b8b9 29be 28e7 d33d 3856 6dbe
00000330: 24a8 49be 1875 863d 54d3 72be f020 533d
00000340: e4b0 1dbe 80fb b0bb 4081 52bd 40b4 df3d
00000350: 6014 c53d 0457 7abe 40d5 543c 6046 5c3d
00000360: e024 4abe 78d1 743e 447f 6c3e 2890 ab3d
00000370: 00b3 fb3c d824 ae3d 1c2e 0fbe 8044 933b
00000380: f8e4 0b3e b80a 72be a482 47be c869 bbbd
00000390: 04bc 273e 405d 483c 189c 94bd 04d0 7ebe
000003a0: 10cb 753d 306f 683e f497 36be 888a 68be
000003b0: a8ca db3d 509a 3c3d e08d af3d f87c 97bd
000003c0: 00b6 c33d 80d0 98bb ec09 0b3e 90f3 ed3d
000003d0: b870 53be 6056 0cbe 008e 18bc c8c9 013e
000003e0: 90c4 793d b0d0 71be 784c ab3d 0871 39be
000003f0: 0036 9cbb 285c 653e 5846 74be 48ae 72be

sequential_1/dense_5/MatMul f4 [7, 32]
0.118335694 -0.044829905 0.0011355579 0.07301518 -0.123146296 0.032372236 0.3910996 0.09251925
0.014494896 -0.029727906 -0.27158976 -0.15434156 -0.1795076 0.1443688 0.020830274 0.29743096
0.29488024 -0.20215882 -0.2206269 0.057656765 -0.09421179 -0.23699652 0.111393064 -0.35874194
-0.0067562163 0.35244676 0.3675771 -0.12572846 -0.37331167 -0.061575055 -0.376905 0.026577473
-0.102935374 0.34349063 0.16252246 -0.36784354 -0.35629708 -0.15884423 0.37172994 -0.35124314
0.35805497 -0.31784046 -0.15912366 0.22199544 -0.26188695 -0.110921204 -0.33505917 -0.27049795
0.06799489 -0.35333216 0.09071195 0.26901188 0.18610081 0.20722088 -0.2240217 -0.27813143
0.1962389 -0.2380524 0.16983 -0.30416435 -0.37948415 0.17330357 -0.12580541 0.0031832755
-0.11006686 0.24614474 0.31278077 -0.15649326 0.099758446 0.28251514 0.1748937 -0.04146269
0.22644714 0.21218845 -0.061801374 0.2753761 -0.27949637 -0.37212804 -0.13658795 -0.09723589
-0.3898464 -0.28646845 0.17751566 -0.29022813 -0.23794737 -0.3623454 -0.3705324 -0.07394743
0.37629142 -0.24766934 0.3049527 -0.28131163 -0.27984005 0.058618754 -0.3310219 -0.0344339
-0.35850525 0.11104819 0.3208451 -0.27779096 0.11422464 -0.34188056 0.021726638 0.2444062
0.15552387 -0.1580185 0.057753563 0.26179513 0.06904715 -0.30996448 0.36395177 -0.38581356
0.085593015 -0.0880118 0.30787835 -0.027585387 0.14645281 0.19644561 -0.34135884 0.013115644
0.39089134 -0.3440575 -0.16374202 -0.043477386 -0.12839422 -0.368618 -0.29446176 0.12300941
0.18733504 0.30992857 -0.2505899 -0.33812797 -0.15246134 -0.36851245 0.28962842 -0.29346403
0.31650254 -0.13000116 0.06320831 0.17784283 0.2658988 0.09588328 -0.22553825 -0.09675774
-0.38649333 0.032391787 0.2512721 -0.30580753 -0.21880402 0.3788385 0.049360543 0.27906415
0.3063431 0.19607255 -0.16127358 0.16479698 -0.31121674 0.33649835 -0.25030583 -0.35505006
0.2190865 0.3574436 0.12889674 0.031691253 -0.26635924 -0.31892475 -0.34086984 0.11731663
-0.08936271 0.30759463 -0.086372286 0.13101074 0.10074374 0.21309993 0.3455108 -0.20303553
-0.28258651 -0.071418315 -0.20550686 -0.31502637 0.117017835 0.13373825 -0.3426961 0.17433313
-0.1151914 0.16369769 -0.025811672 0.14828953 0.058223367 0.3883581 -0.19786665 -0.1011222
0.3597041 0.20347533 0.03780502 -0.04062003 -0.2670834 -0.24274369 -0.35255253 -0.03135097
0.07965714 -0.0629375 -0.14170724 -0.39067057 0.16763833 0.2926828 -0.38747177 -0.17377089
0.10111031 0.09302926 0.12976012 -0.122976094 -0.23185363 0.216019 0.12741086 0.28367767
-0.08955294 -0.3481472 -0.29334986 0.28727284 -0.14933354 -0.0042149425 0.19770256 0.0063883364
00000000: fc59 f23d 909f 37bd 00d7 943a fc88 953d
00000010: 2034 fcbd c098 043d 353e c83e bc7a bd3d
00000020: 007c 6d3c f087 f3bc d00d 8bbe b70b 1ebe
00000030: d7d0 37be 6ad5 133e 40a4 aa3c df48 983e
00000040: 8bfa 963e b902 4fbe 05ec 61be 8029 6c3d
00000050: 1cf2 c0bd 37af 72be 0c22 e43d 06ad b7be
00000060: 4063 ddbb e773 b43e 1133 bc3e f6be 00be
00000070: b522 bfbe 2036 7cbd b1f9 c0be 00b9 d93c
00000080: c8cf d2bd 01de af3e 4a6c 263e fd55 bcbe
00000090: 926c b6be 10a8 22be 6353 be3e 24d6 b3be
000000a0: fb52 b73e fcbb a2be 50f1 22be c652 633e
000000b0: 0c16 86be a82a e3bd e08c abbe b57e 8abe
000000c0: e840 8b3d f4e7 b4be 30c7 b93d edbb 893e
000000d0: 3691 3e3e b631 543e f265 65be 3e67 8ebe
000000e0: daf2 483e 02c4 73be eae7 2d3e 6ebb 9bbe
000000f0: bf4b c2be 7e76 313e 22d3 00be 809e 503b
00000100: bc6a e1bd 5e0d 7c3e cd24 a03e c53f 20be
00000110: 284e cc3d d3a5 903e 5617 333e c8d4 29bd
00000120: c2e1 673e ee47 593e 7023 7dbd 19fe 8c3e
00000130: 261a 8fbe 9187 bebe b6dd 0bbe 9c23 c7bd
00000140: f399 c7be feab 92be aac6 353e c898 94be
00000150: 7aa8 73be 5685 b9be 6cb6 bdbe c071 97bd
00000160: 45a9 c03e 089d 7dbe c322 9c3e 1408 90be
00000170: 3247 8fbe 381a 703d b47b a9be 900a 0dbd
00000180: 008e b7be 3c6d e33d cf45 a43e 9e3a 8ebe
00000190: 9cee e93d f80a afbe 10fc b13c 9e45 7a3e
000001a0: a641 1f3e 9acf 21be 008f 6c3d 030a 863e
000001b0: 9868 8d3d aab3 9ebe e357 ba3e 5b89 c5be
000001c0: 644b af3d 883f b4bd 3ba2 9d3e c0fa e1bc
000001d0: baf7 153e 0a29 493e 96c6 aebe 00e3 563c
000001e0: e922 c83e 4e28 b0be fdab 27be 5815 32bd
000001f0: c679 03be 80bb bcbe b1c3 96be 5cec fb3d
00000200: c2d4 3f3e f5ae 9e3e 524d 80be 1c1f adbe
00000210: d31e 1cbe aaad bcbe 2d4a 943e eb40 96be
00000220: 9f0c a23e 061f 05be 5c73 813d 6e1c 363e
00000230: e323 883e 745e c43d 80f3 66be ec28 c6bd
00000240: 74e2 c5be 40ad 043d bda6 803e ce92 9cbe
00000250: 290e 60be 1ff7 c13e 482e 4a3d 7fe1 8e3e
00000260: 01d9 9c3e 3ec7 483e e724 25be 8ac0 283e
00000270: cd57 9fbe 8349 ac3e 1628 80be 1fc9 b5be
00000280: 3658 603e d902 b73e 82fd 033e b0ce 013d
00000290: 3d60 88be 1b4a a3be 7e86 aebe b443 f03d
000002a0: cc03 b7bd 0b7d 9d3e f4e3 b0bd ae27 063e
000002b0: bc52 ce3d de36 5a3e cbe6 b03e 8ce8 4fbe
000002c0: 2eaf 90be c443 92bd 6470 52be 234b a1be
000002d0: 0ca7 ef3d aef2 083e dd75 afbe 6284 323e
000002e0: 78e9 ebbd 5ea0 273e 0073 d3bc 36d9 173e
000002f0: a07b 6e3d dfd6 c63e 8e9d 4abe 2819 cfbd
00000300: 232b b83e d65b 503e 70d9 1a3d 3061 26bd
00000310: 28bf 88be cd91 78be c481 b4be e069 00bd
00000320: 4823 a33d 60e5 80bd b41b 11be f905 c8be
00000330: 62a9 2b3e 85da 953e b362 c6be fff0 31be
00000340: ec12 cf3d 2086 be3d d6df 043e e4da fbbd
00000350: 0a6b 6dbe 1634 5d3e fe77 023e 333e 913e
00000360: 8867 b7bd 5a40 b2be f431 96be 6d15 933e
00000370: e4ea 18be 801d 8abb 8a72 4a3e 4055 d13b
